Qilimanjaro/src/qutrit_classifier_3layers_optimal_params.npy (npy, 416 bytes, 1 tensors)

array f8 [36]
0	0x4000d88eccd23ef2	2.1057411195432616
1	0x3fe59135a6db7740	0.6739757784778035
2	0x4006e4dd951f9974	2.861750760104025
3	0x40082a74f7c01c80	3.020730910825989
4	0x3fedc8667560eb8e	0.930712918524806
5	0xbff0ffbc16a9a7c4	-1.062435234571681
6	0xc00ef635d9eef3ef	-3.8702199007079723
7	0xbfc744b810f66e18	-0.1817846377206116
8	0x3fb13078d17a7243	0.06714587320534186
9	0xc0072035a4f6f59c	-2.890727318560222
10	0xbfda44dfdc0ff9bc	-0.4104537629172247
11	0x4000e2ea961d3703	2.110799000517433
12	0xbfefc402e85f5db7	-0.9926771677518705
13	0xc002c24b17125830	-2.3448697855447094
14	0x3ff450711c342b8b	1.269639120265057
15	0xbff85156ad6f493a	-1.5198580527108576
16	0x400055ce50463153	2.0418974181576828
17	0xbfdc9a50df8cdcf2	-0.4469186957462191
18	0x3fdb727e71ad465c	0.42886315442328793
19	0xbffcb02149535071	-1.7930004944110147
20	0xc0002b5476414e5a	-2.021157192104323
21	0x4006332fd5772c17	2.7749935795777776
22	0xbfee5bea2bb7492f	-0.9487200597598412
23	0x3fda3b6442a60717	0.4098749781479553
24	0xbff5d6588632dff8	-1.3648305170190707
25	0xbfccaba491a06cc5	-0.22398812399555915
26	0xbfce3305599f3e2e	-0.23593203426433845
27	0x3fe4e553cd174a61	0.6529940610583475
28	0x4002ebf573b58884	2.365214256265121
29	0x4001d1cc414995af	2.2274403668004292
30	0xbfdb76ce5d812cb6	-0.429126349747729
31	0x3fede880759fb126	0.9346315667476446
32	0x3ff027229739dc15	1.0095544726625623
33	0xc002957bb15d19ba	-2.3229898315941826
34	0x3fa4dca7fdc84ffb	0.04074597332888171
35	0xbfd4522bacc35f22	-0.317515295709642
